…
;] epochs = range(1,31) plt.plot(epochs, loss_train, &#39;g&#39;, label=&#39;Training accuracy&#39;) plt.plot(epochs, loss_val, &#39;b&#39;, label=&#39;validation accuracy&#39;) plt.title(&#39;Training and Validation accuracy&#39;) plt.xlabel(&#39;Epochs&#39;) plt.ylabel(&#39;Accuracy&#39;) plt.legend() plt.show() . Ok...Let&#39;s see some summaries of our model: . model.summary() . Model: &#34;sequential_1&#34; _________________________________________________________________ Layer (type) Output Shape Param # ================================================================= conv2d_3 (Conv2D) (None, 198, 198, 32) 896 _________________________________________________________________ batch_normalization_4 (Batch (None, 198, 198, 32) 128 _________________________________________________________________ max_pooling2d_3 (MaxPooling2 (None, 99, 99, 32) 0 _________________________________________________________________ dropout_4 (Dropout) (None, 99, 99, 32) 0 _________________________________________________________________ conv2d_4 (Conv2D) (None, 97, 97, 64) 18496 _________________________________________________________________ batch_normalization_5 (Batch (None, 97, 97, 64) 256 _________________________________________________________________ max_pooling2d_4 (MaxPooling2 (None, 48, 48, 64) 0 _________________________________________________________________ dropout_5 (Dropout) (None, 48, 48, 64) 0 _________________________________________________________________ conv2d_5 (Conv2D) (None, 46, 46, 128) 73856 _________________________________________________________________ batch_normalization_6 (Batch (None, 46, 46, 128) 512 _________________________________________________________________ max_pooling2d_5 (MaxPooling2 (None, 23, 23, 128) 0 _________________________________________________________________ dropout_6 (Dropout) (None, 23, 23, 128) 0 _________________________________________________________________ flatten_1 (Flatten) (None, 67712) 0 _________________________________________________________________ dense_2 (Dense) (None, 512) 34669056 _________________________________________________________________ batch_normalization_7 (Batch (None, 512) 2048 _________________________________________________________________ dropout_7 (Dropout) (None, 512) 0 _________________________________________________________________ dense_3 (Dense) (None, 3) 1539 ================================================================= Total params: 34,766,787 Trainable params: 34,765,315 Non-trainable params: 1,472 _________________________________________________________________ . Cool. Now let&#39;s test our model and see how it reacts to the testing data. Let&#39;s try testing the beetles: . dir_path = &#39;insects/test/beetles&#39; for i in os.listdir(dir_pa
…
